saved model/pruned_model_3x.tflite (tflite, 434444 bytes, 9 tensors)

sequential/conv2d/BiasAdd/ReadVariableOp f4 [6]
000000 e0 9c d1 3b 24 5d 04 3d d8 90 68 bc 59 03 03 bd
       0.006396875 0.03231539 -0.01419469 -0.031985614
000010 48 e1 a6 bc d4 fd da 3b
       -0.020371094 0.0066830907

sequential/conv2d_1/BiasAdd/ReadVariableOp f4 [16]
000000 0a 74 82 bd 5b 6d 3b bc da d6 cb ba 61 31 06 3c
       -0.06369789 -0.011439647 -0.0015551702 0.008190484
000010 3b 03 bc bc 04 29 7b bd 90 74 9b bd 21 73 42 bd
       -0.02295076 -0.061318412 -0.07590592 -0.047473077
000020 10 ef bf bc e7 43 11 ba 50 61 75 bd c8 f5 35 bd
       -0.023429424 -0.0005541429 -0.059907258 -0.04442385
000030 b9 d2 3a bd 35 17 0d bd 62 9f 9a bb 2f 08 75 bc
       -0.045611117 -0.03444596 -0.004718707 -0.014955564

sequential/dense_2/MatMul;sequential/dense_2/BiasAdd f4 [10]
000000 ee e2 10 3d cb 3a bd 3e d6 07 f1 3c e9 5a d2 bd
       0.035372667 0.36958918 0.029422682 -0.10271246
000010 dd 45 a3 bd 32 d2 bb 3a 31 96 0f be 54 10 69 3d
       -0.0797231 0.0014329611 -0.14022137 0.056900337
000020 b8 a0 fd bd 92 88 f0 3c
       -0.1238417 0.029361997

sequential/conv2d/Conv2D f4 [6, 5, 5, 1]
000000 53 a2 03 be 95 5b 3c 3a cf a3 33 3e 2d 2c 1f be
       -0.1285489 0.00071852776 0.17542957 -0.15544195
000010 2c 69 97 bd fd bd c9 3d 49 51 3e 3c 26 63 a9 3d
       -0.07393107 0.098506905 0.01161606 0.08270864
000020 02 8f 79 be 6a 26 91 bd b6 d4 c5 bd fe a9 50 3c
       -0.2437096 -0.07087405 -0.09659712 0.012735842
000030 78 d7 ba bd 8a 17 11 be 3d ea 8e bd d1 10 57 be
       -0.09123129 -0.14169136 -0.06978271 -0.21002509
000040 b2 06 53 3e 02 76 45 3e 1c 5d b2 3d 42 28 a1 3d
       0.20608023 0.19283298 0.087091655 0.07869007
000050 f6 56 51 bd 73 e4 3c 3e a7 0d 41 3d c6 71 3e 3c
       -0.051108323 0.18446521 0.04713216 0.011623805
000060 0d 8b 4e 3e 25 4f 24 be 0b c0 97 3d 62 27 fd 3c
       0.20170231 -0.16045816 0.07409676 0.030902568
000070 a3 91 0e 3d be b8 1e 3d af 4a 88 be 45 29 b7 be
       0.03480686 0.038750403 -0.2661948 -0.35773674
000080 e4 c4 64 be e1 05 65 be 80 fb c8 bd d0 9d ee bd
       -0.22340733 -0.22365524 -0.09813595 -0.11651194
000090 7e d0 1f bd 73 b3 92 bc ab fe 59 3b d2 c1 d8 3c
       -0.039017193 -0.017907834 0.0033263366 0.026459608
0000a0 62 f3 6a 3d 65 80 07 3c aa 57 c8 bc 61 ba 11 bd
       0.057361014 0.008270358 -0.024455864 -0.035578135
0000b0 75 0d 81 3b 48 9a 25 3e af b4 2d 3e c0 ad 42 3e
       0.003938372 0.16172135 0.16963457 0.19011593
0000c0 1f 74 af 3d e0 28 7b 3e 3e 33 39 3d 2e dd 59 be
       0.0856707 0.24527311 0.045214884 -0.2127578
0000d0 17 3f 9b bd 44 7f b9 bc 58 21 a3 b8 f4 3a 9d bb
       -0.07580393 -0.022643693 -7.7786564e-05 -0.0047982875
0000e0 fc 9d 8f 3c 6e ce cb bd b9 46 30 be 8f 5e 2c 3d
       0.017531388 -0.09951483 -0.17214479 0.042082366
0000f0 b9 3f 93 3e c3 c5 94 3d 6e 40 32 be ce a0 0b 3e
       0.28759554 0.072642826 -0.1740739 0.13635561
000100 c7 53 64 bd 06 1d b4 bd ac 1b 86 3d 63 37 74 3e
       -0.05574396 -0.08794598 0.06548247 0.23849253
000110 7b 14 b1 bd 2d a8 16 bd b9 26 52 be 63 a4 28 3e
       -0.086464845 -0.03678148 -0.20522584 0.16468959
000120 63 1a 87 3d 6d a6 2c 3d 0a 38 2b bd 31 76 b9 bc
       0.0659683 0.042150903 -0.04180149 -0.022639366
000130 3b 2e 23 39 35 de f0 3d 05 a5 3c 3d 45 95 85 3d
       0.00015562114 0.11761133 0.046055812 0.065226115
000140 4c 24 48 be 90 fe 43 be ed 9d b3 3d 4c a3 0f 3e
       -0.19545096 -0.19140077 0.08770356 0.14027137
000150 12 5f 61 bd 5b ec 9c be 6e fe a7 bd 87 b1 63 3e
       -0.055022307 -0.30649075 -0.082028255 0.2223569
000160 81 1a 08 3e d4 c6 27 3d 8e 02 e2 bc b7 8f 28 3d
       0.1329136 0.0409611 -0.027589109 0.041152682
000170 2a c9 a0 bd 90 c4 24 3e 39 2c 75 bd f3 56 b3 bd
       -0.07850869 0.16090608 -0.059856627 -0.087568186
000180 d1 23 d3 bd de bc 5a 3e 01 d1 24 bd ab 6d 36 3e
       -0.10309566 0.2136111 -0.040238384 0.17815273
000190 cd 9e d0 3d 3a bf 4d 3d 6e c7 0e be cc cc a6 3d
       0.10186539 0.050231196 -0.13943264 0.08144531
0001a0 1a a3 36 be f9 a1 b6 bd 79 7e 3f 3e 2a 34 e2 3d
       -0.17835656 -0.089176126 0.18700589 0.11045106
0001b0 4c 4c a8 3d 3c 7d d2 bd d2 4f 2b 3e 3b 05 5e 3e
       0.082176775 -0.10277793 0.16729668 0.21681683
0001c0 e1 03 c6 3d 13 f3 b1 bd 36 42 43 be e1 6d 86 bd
       0.096687086 -0.08688941 -0.19068226 -0.065639265
0001d0 25 97 55 bd 32 14 20 bc 3a ca 5d 3e 8e a6 55 3e
       -0.052146096 -0.00977044 0.21659175 0.20864317
0001e0 5f c5 1e 3d 56 64 99 bd c9 9e 40 3d f3 cc 89 3d
       0.038762446 -0.07489841 0.04702643 0.06728544
0001f0 f6 43 0b 3e f4 35 97 3d 37 cd 3d 3e d5 e8 fc 3d
       0.13600144 0.073833376 0.18535315 0.12349097
000200 57 60 28 be e2 4b 80 be 30 0c f1 3d f3 e6 e9 3d
       -0.16443 -0.25057894 0.11769903 0.11421003
000210 e9 31 a1 bd a6 b2 d6 be 3b f7 15 be 28 f7 c5 3d
       -0.07870848 -0.41933173 -0.14645092 0.09666282
000220 5b 39 3d be ca 47 fd be 1c 6e 98 be 60 23 8a 3e
       -0.1847891 -0.49468833 -0.29771507 0.26980114
000230 b0 71 5b be 71 68 98 be fd 07 70 be a7 fa 3e 3e
       -0.21430087 -0.29767182 -0.23440547 0.18650304
000240 80 27 b4 3d 5d 5b 0b 3d 16 01 e5 3c 3b 3d 9a bd
       0.087965965 0.034022678 0.02795462 -0.0753121
000250 2f 24 3f 3e 49 a1 82 3e
       0.18666147 0.25513676

sequential/conv2d_1/Conv2D f4 [16, 5, 5, 6]
000000 85 92 50 bd 7c 74 51 be 60 a6 47 bd 99 40 29 3e
       -0.050920982 -0.20454592 -0.048742652 0.16528548
000010 4d a0 8d bd c2 02 67 3d 73 cc 4e bc 9d db 82 bd
       -0.069153406 0.056399114 -0.012621987 -0.06389544
000020 a6 e6 9e bd 35 80 85 bc 1e a5 24 ba 80 c7 7f 3d
       -0.077588364 -0.016296485 -0.0006280708 0.062446117
000030 b0 e3 27 be c2 bf 82 bd 2d 7a fe bd fe 65 52 bd
       -0.1639545 -0.06384231 -0.12425647 -0.0513668
000040 c5 db 1a be 4d 86 0d 3e cb 3f c7 bd a5 6f 82 3d
       -0.15122898 0.13820763 -0.097289644 0.06368951
000050 50 af b7 bd 53 f7 3c 3e 7c cc e3 3c 13 ff f8 3d
       -0.08968985 0.18453722 0.027807467 0.121580265
000060 d2 ea b8 3d 9d ef ae 3b 92 7f c1 3d 5e 44 1c 3e
       0.090291634 0.0053386227 0.0944816 0.15260455
000070 8b 36 b8 3d f6 cf c5 3d dd 5e 37 bd 60 20 44 3b
       0.08994778 0.09658806 -0.044768203 0.0029926524
000080 b7 11 6e 3c 20 ec 8d bc a7 87 81 bd 48 44 6b 3d
       0.014530591 -0.017324507 -0.06324702 0.057438165
000090 21 a6 5b bc 0b 7a c3 3c 2b be 8d 3d de f7 28 be
       -0.013406307 0.023861906 0.06921037 -0.16500804
0000a0 f9 5e 0f bd af 68 6a 3d 98 e4 10 bd 0a 2b a5 bd
       -0.035002682 0.05722874 -0.035374254 -0.0806485
0000b0 42 47 7e bd a2 29 31 be 1b 58 52 be 1b d7 06 3d
       -0.062079675 -0.17301038 -0.20541422 0.032919984
0000c0 8e 4d fb bd ab 94 e6 bb c9 a0 a5 3c a2 ca 84 bb
       -0.12270652 -0.0070367656 0.02021827 -0.004052476
0000d0 2d 24 03 be 45 9b 32 3d 2b f7 df 3d 78 b9 10 be
       -0.12806769 0.043605108 0.109358154 -0.1413325
0000e0 44 33 20 3d 1a 56 7e 3c c6 2f 9b 3c 86 43 e7 3d
       0.03911139 0.015523458 0.018943679 0.11292176
0000f0 f6 c6 d8 bd 76 4e 0e 3e 91 79 e6 3c a5 b8 01 be
       -0.10584824 0.13897118 0.02813414 -0.12668093
000100 65 e0 12 3d 26 2f aa 3d a0 5c dd 3a cb ee 50 bd
       0.03585853 0.08309774 0.0016888566 -0.05100898
000110 69 7f e0 3d 0e 10 80 3b fd 8a 6e bd 48 9b 69 3b
       0.109618016 0.003908164 -0.05823802 0.0035645533
000120 29 31 b9 bd 54 5d f5 bc f8 7e 80 bc c5 c8 39 be
       -0.0904258 -0.029951729 -0.015685543 -0.18142994
000130 6a da 97 bd c6 f9 2a be 5c 64 d4 bd a6 3a ad 3b
       -0.07414706 -0.16696844 -0.103707045 0.0052865325
000140 aa b5 28 bd 1d 93 05 be ab 17 e1 bd 33 c2 1f be
       -0.041188873 -0.130444 -0.109908424 -0.15601425
000150 55 2d b1 bc 6a 0d 0a bd 7e b8 20 be e8 85 9c bc
       -0.021628061 -0.0337042 -0.15695378 -0.01910682
000160 43 8a 88 bd 0e d1 be bd f9 35 d4 bd 57 f9 94 3d
       -0.06666996 -0.09317218 -0.10361857 0.0727412
000170 fe 04 c8 3c 4e 6d b3 bd 34 d6 5c 3d 4c df 84 3d
       0.024416443 -0.087610826 0.053915218 0.06487903
000180 4c 00 50 bd d4 49 70 3d 87 f9 fc bd 96 dd 82 bd
       -0.050781533 0.058664158 -0.12352281 -0.063899204
000190 6f 81 3b 3d 1a a5 ad bd 49 c8 0e 3b 59 5f d8 3d
       0.045777734 -0.08478756 0.002178686 0.10565061
0001a0 ab aa 2a bd ae 38 96 3d 4a 80 06 3e ad 80 dd 3d
       -0.041666668 0.073350295 0.13134876 0.108155586
0001b0 d0 bc 8a 3d 97 33 cf 3d 29 5d ab bc 49 bc 98 bd
       0.067742944 0.10117262 -0.020918446 -0.074577875
0001c0 e6 fd 09 3e ea 8c e4 3d 56 b9 0e 3e de 35 25 3e
       0.13475761 0.1115969 0.13937888 0.1613383
0001d0 00 8a 9f bb 7c ed 87 bd 30 80 fb bc 06 52 1b bc
       -0.004868746 -0.066370934 -0.030700773 -0.009480005
0001e0 97 c9 c4 3d 08 5a 6a bd a4 43 0c 3d 1a c4 e6 bd
       0.09608763 -0.057214767 0.034244195 -0.11267872
0001f0 91 d2 54 3d de 5f ea bc 94 0f be 3d 67 2a 6e 3d
       0.051958624 -0.028610166 0.09280315 0.058145907
000200 46 16 c3 3d 25 45 fa 3b aa 84 c7 3d df 33 be bd
       0.09525733 0.007637637 0.097421005 -0.092872374
000210 97 97 b4 3b 2e ea a1 bd bb 0b 94 3d 01 9a 13 3d
       0.005511235 -0.07905994 0.072288 0.03603554
000220 88 ab 07 bd 2a 29 db 3a fc a0 61 bd fd 99 b6 3d
       -0.03312257 0.0016720642 -0.055085167 0.0891609
000230 b9 a1 2e 3d 98 61 57 bd 42 50 f9 3c 7a db 1e 3d
       0.0426347 -0.052583307 0.030433778 0.038783528
000240 6d 10 72 bd c4 2d fd bc c9 3c 87 bd a9 11 02 be
       -0.059097696 -0.030905612 -0.06603391 -0.1270205
000250 2e 6e ac 3d 2c 5e 12 bc 45 4f 78 bd 77 13 ea bd
       0.084194526 -0.008933585 -0.060622472 -0.11429494
000260 07 cf fd 3d 0d 9e 3d bd ae ba c0 b9 16 f9 c2 3b
       0.12393003 -0.046293307 -0.0003676018 0.0059501035
000270 d7 0f 9b 3d c7 92 df bd 54 62 1c 3e 33 b1 0b be
       0.075713806 -0.109166674 0.15271884 -0.13641815
000280 c4 74 b5 bd dc 1d 39 be 18 8f 54 be 66 8c 89 bd
       -0.08860162 -0.18077797 -0.20757711 -0.06716232
000290 ad ed 2c bd 3e 4d 99 3c 4d 95 cc 3d 14 6f 33 bd
       -0.042218853 0.01871359 0.09989414 -0.043807104
0002a0 8d 63 17 3d 59 96 fc bd b5 ca 5a 3e c0 60 c1 3a
       0.036960173 -0.12333364 0.21366389 0.0014753565
0002b0 56 e8 d8 3c 51 38 50 be 05 ab 3b 3e 5d a0 03 3d
       0.026477974 -0.20333983 0.18326958 0.032135356
0002c0 92 64 86 3d ff e6 94 bb 18 2b 57 3d 56 cb f4 bd
       0.06562151 -0.0045441384 0.05253133 -0.11952846
0002d0 c4 be b7 3c cf cf 98 bd 17 37 49 3d fd eb 03 3d
       0.022429831 -0.07461511 0.049124803 0.032207478
0002e0 05 6f 80 bc 60 74 5e 3d cf d8 0f 3e ca e0 a8 bd
       -0.015677938 0.054310203 0.1404755 -0.08246
0002f0 96 e2 65 3c a4 ce f7 bd c8 fc 01 be 63 78 8d bd
       0.014031073 -0.120999604 -0.12694085 -0.069077276
000300 e5 be 2f be 1d 9c 9a bd 29 31 e5 bd bc 01 c2 3d
       -0.17162664 -0.075493075 -0.11191017 0.09472987
000310 22 54 44 be 1b a9 9f bd aa e8 c0 3d 1c c7 ff bd
       -0.19172719 -0.07795926 0.09419377 -0.12489149
000320 9b 57 f0 bd 3b e8 cc 3d fb dc 95 bd 6a bb 84 bd
       -0.117354594 0.10005232 -0.07317539 -0.06481059
000330 1c d4 c6 3c ec 54 5f 3b f1 ff f2 3d d1 07 c6 3d
       0.024271064 0.0034077717 0.11865223 0.096694596
000340 03 c3 85 bc ab e3 3c be 14 a7 52 3d eb e6 2d 3c
       -0.01632834 -0.18446223 0.05142887 0.010614137
000350 2d 16 29 3e 4f 5a 1e 3e f5 ff 9e bd e8 f4 8d 3d
       0.16512366 0.15464137 -0.07763664 0.06931478
000360 45 6d 8d 3d 7a 0a 0b bd 2a 95 bf 3d c9 f2 51 bd
       0.06905607 -0.033945538 0.09354623 -0.05125693
000370 e0 92 87 3c 55 b2 11 3d 86 b3 87 3d 00 2d 3c bd
       0.016549528 0.03557046 0.06626038 -0.045941353
000380 f9 99 d2 bd 81 38 c4 bd d0 11 8d bd 91 65 d6 3d
       -0.10283274 -0.0958109 -0.06888163 0.10468591
000390 64 ba e9 3d 0a d3 81 3d ac 06 fc bd 26 d0 57 bd
       0.11412504 0.06339081 -0.1230596 -0.05268874
0003a0 a3 24 31 ba 5e a6 8e 3d 16 64 35 3d fb 9d ec bc
       -0.00067574735 0.06965326 0.044284903 -0.028883925
0003b0 03 d7 d7 3d a5 ed d6 3d bb 95 a7 3d ff a8 00 3e
       0.10539057 0.10494546 0.08182856 0.12564467
0003c0 df b3 8c 3d 4d 2f 87 bd c8 f1 86 bd 64 fc 6d 3d
       0.06870245 -0.06600819 -0.06589085 0.058102027
0003d0 ec b0 4f bc 3f 53 c0 ba c9 11 e7 3c b5 60 9b 3d
       -0.012676459 -0.0014673247 0.028206723 0.07586805
0003e0 3f e9 df bd e9 7a 67 bd 84 f1 ff bb 6a b3 c6 3d
       -0.1093316 -0.0565137 -0.0078107733 0.09702189
0003f0 99 60 52 3d b0 d5 90 3c 1c 36 5d bd cd 11 d5 3b
       0.051361654 0.01768002 -0.05400668 0.006502366

sequential/dense/BiasAdd/ReadVariableOp f4 [120]
000000 11 11 cc bb 51 d3 8b bd 73 4b 20 bb cc 8d bf 3c
       -0.0062276204 -0.06827415 -0.0024459034 0.023383044
000010 83 6b 44 bd 44 46 a3 3c 15 e8 ed bc cf 15 4c 3d
       -0.047954094 0.019930966 -0.02904133 0.049825486
000020 50 be 48 3d 9f f8 aa 39 24 a8 6f bd 29 e1 86 bc
       0.04900962 0.00032610164 -0.05850996 -0.016464787
000030 5a 27 16 bc 32 78 2e bd c4 83 29 bd 0e 18 d3 bb
       -0.009164656 -0.042595096 -0.041385427 -0.0064420765
000040 bf 7b 37 bc 52 85 c0 3b 3b e7 f7 bc 62 80 c8 3c
       -0.011198937 0.005875268 -0.030261626 0.02447528
000050 c3 c6 39 bc 37 78 5a bd a7 78 2a bd f5 95 10 bd
       -0.011338892 -0.053337302 -0.04161897 -0.03529926
000060 36 60 c3 bc 32 9d 49 3c 3f c6 72 3b af c8 77 3c
       -0.023849588 0.012305545 0.0037044433 0.01512353
000070 8c 2a 3e 3c 19 63 b5 ba 69 60 41 3c 1e 26 7b bc
       0.011606824 -0.0013838738 0.011802771 -0.015328912
000080 ef a6 17 3c c1 cd 90 3b 90 f1 e1 3b 46 aa 0b bd
       0.009256109 0.004419059 0.0068952516 -0.034097932
000090 41 b1 ea 3b 10 d9 22 3d 51 da c7 3c 2f 64 c4 3c
       0.0071622436 0.03975779 0.024396094 0.023973553
0000a0 82 be 3a 3c 90 71 52 3b cb 5e 19 bc 62 51 34 3c
       0.01139796 0.0032111146 -0.009360979 0.011005731
0000b0 52 c9 48 bc 87 3d 3c bd 6e 7e 2d 3d 25 d3 d8 3c
       -0.01225503 -0.045957115 0.0423569 0.026467869
0000c0 87 08 65 3c 7d 5b 99 bc 1a d1 6a 3c ab 78 2e 3c
       0.013979084 -0.018720383 0.01433208 0.010648887
0000d0 fe eb 4d 3d 3a b8 4b 3d c9 d8 ae bb 56 90 e4 bc
       0.050273888 0.04973624 -0.0053359014 -0.027900856
0000e0 06 38 1a 3d f0 19 04 bd 14 30 f4 3b 33 ea ea bc
       0.037651084 -0.0322513 0.0074520204 -0.028676128
0000f0 fe 41 59 3d b0 b8 6e bc 29 8d 8f 3b dc 80 05 3d
       0.05304145 -0.0145704 0.0043808413 0.032593593
000100 6b ea 08 3c b3 80 ed bc c4 aa ab bc 21 5c c8 bb
       0.008356671 -0.028992033 -0.02095545 -0.0061144982
000110 de 13 8b 3c 54 da 07 bb 87 fa e6 bc 94 d8 92 3a
       0.016977247 -0.00207295 -0.028195633 0.0011203461
000120 c2 c0 3e bb 96 4c e7 3c ce 13 89 bc 50 4c 85 3c
       -0.0029106592 0.028234761 -0.016733076 0.01627174
000130 b7 19 3e 3c a2 fd bb bc 56 d5 9c 3c 74 ef 30 3d
       0.011602811 -0.02294809 0.019144695 0.04319711
000140 80 f8 b8 bc a0 29 51 3b ca 1f 23 bd 19 06 59 3d
       -0.022579432 0.003191568 -0.03982524 0.05298433
000150 94 4f ae 3c 08 c1 bb bc b6 57 09 bd e3 63 1b bc
       0.02127818 -0.022919193 -0.033530913 -0.009484264
000160 0f c2 f2 bc 52 e2 5b 3a ae 61 8c bc 88 29 0f bd
       -0.02963355 0.00083879114 -0.017136421 -0.034951717
000170 0e 5c 38 3a e8 ff ad 3b 65 36 2f bd 23 74 c5 3c
       0.000703276 0.0053100474 -0.042776484 0.02410323
000180 7d 64 31 3d 1e 77 1d 3c b5 ff 1d bd e6 88 33 3c
       0.043308724 0.009610919 -0.03857394 0.010957932
000190 1c 5b 31 3c 3e 48 5f bc 9c 46 6c bd db cc bf 3c
       0.010824945 -0.013628064 -0.057684526 0.023413112
0001a0 68 f8 23 bb 8c 84 7f bd 40 83 37 3c f3 c4 5a bc
       -0.0025019888 -0.062382266 0.011200726 -0.01335262
0001b0 a3 62 87 3b b6 2b 88 3c c6 62 57 3d 76 c7 4a bc
       0.0041316315 0.016622405 0.052584432 -0.012376657
0001c0 6a dd 83 3c 45 4d 76 bc f9 a2 15 3d 1c a3 9d 3c
       0.01609679 -0.015033071 0.036532376 0.019242816
0001d0 20 92 06 3d 14 bc 29 bd e1 b7 05 3c 4d fc 10 bd
       0.0328542 -0.04143913 0.008161516 -0.035396863

sequential/dense/MatMul1 f4 [120, 784]
000000 92 55 ae 3c 73 8c d4 bd c5 29 82 3d c3 0b 96 bd
       0.021281037 -0.10378351 0.06355623 -0.07326462
000010 e8 7d 65 bd 63 6e 83 3c 9c 4d a0 3d 89 ed ec bd
       -0.056028277 0.016043847 0.07827303 -0.11568744
000020 08 f1 a3 bd 46 98 b5 bc 3f b8 f6 bc 71 f6 1b bd
       -0.080049574 -0.022167336 -0.030117152 -0.03807682
000030 12 31 8f bc 21 00 b9 3c 1f 95 02 bc e8 76 d3 bd
       -0.017479453 0.02258307 -0.007970124 -0.10325414
000040 59 1d ad bd 1e d9 0c bd fc 37 ef bb 31 cd 52 3d
       -0.08452863 -0.034386747 -0.007300375 0.051465217
000050 48 ce a0 3b 78 b7 ce 3d 7a 45 ac 3b 38 52 aa bc
       0.004907403 0.10093588 0.0052573057 -0.020791158
000060 63 5f 88 bd cb fc 9d 3d 1f 1b 8f 3d 24 15 41 bd
       -0.066588186 0.07714232 0.06987595 -0.047139302
000070 c5 26 12 be a9 6a 55 3d 80 10 77 3c 89 e8 6e 3d
       -0.14272602 0.052103672 0.0150796175 0.05832723
000080 2d a4 a4 3d 3f e1 81 3c 45 ba 73 bd a4 76 96 3b
       0.080391265 0.015854476 -0.059503812 0.00459178
000090 a4 64 13 3d ce 93 d0 bb af da 33 bd e0 49 51 3d
       0.03598465 -0.006365276 -0.043909725 0.051095843
0000a0 c3 8f 26 3d b6 8c 99 bd 1f 46 18 3d 17 f0 15 be
       0.040664446 -0.074975416 0.037176248 -0.14642368
0000b0 54 f2 23 be 27 fa cc 3c 78 eb ae 3c 51 a9 2d bd
       -0.1601041 0.025021626 0.021352515 -0.0423978
0000c0 4e 8a bb 3d d8 94 bc 3c 22 98 e4 3d 81 4a e8 3a
       0.09157239 0.023020193 0.111618295 0.0017722399
0000d0 72 01 67 3c ab 19 45 bd 61 ec b6 3d bc ef bf bb
       0.014099466 -0.048120182 0.089318044 -0.005857436
0000e0 70 ca 32 3e c0 a0 50 3d 20 27 1a 3d 9c e4 91 bd
       0.17460036 0.050934553 0.03763497 -0.07123682
0000f0 15 f1 15 be 9a 38 05 bc dc e1 46 bd a2 c6 22 3d
       -0.14642747 -0.008131171 -0.04855524 0.039740212
000100 76 d1 63 3c 0b 4a b8 3d 1a 25 81 3d ca 80 80 3d
       0.01390492 0.089984976 0.06305905 0.062745646
000110 64 f4 68 bd cb e5 05 be 43 47 03 3e 9c 52 2b bc
       -0.056873694 -0.1307594 0.12820153 -0.010456707
000120 39 d8 d8 3d 6f d1 06 3e e2 61 6f 3d 1a 80 ab 3c
       0.10588116 0.1316583 0.058442958 0.020935107
000130 8d 0d 57 bd 82 a2 56 3d b3 c9 a9 3c d2 92 94 3d
       -0.052503157 0.052401073 0.02072606 0.07254566
000140 18 a2 c4 3c 05 09 8f 3d 2d e6 d5 bd c2 fd 94 bc
       0.024003074 0.06984142 -0.10444293 -0.018187407
000150 e9 e0 0e 3d de 2f 9a bd 63 a0 78 3d 9a f5 b2 3d
       0.03488246 -0.07528661 0.06069983 0.08738251
000160 43 2d 8f 3c 29 af 1d 3e a7 4e 2a 39 8f 2c 1f 3e
       0.017477637 0.1539885 0.00016241764 0.15544342
000170 cf 14 d9 3d 89 32 0b bd 21 af 40 bc 85 66 38 3d
       0.10599672 -0.03398374 -0.011760504 0.045019645
000180 8b f1 10 bd 1c c1 cd bc c6 fc f3 bc 2a fb ea bc
       -0.035386603 -0.025116496 -0.029783618 -0.028684217
000190 d9 e5 94 3d 19 51 77 bd 91 c3 a6 bd d5 f3 d6 3b
       0.072704025 -0.060380075 -0.0814277 0.0065598288
0001a0 18 39 3b 3b bb c5 e0 3c b0 b9 38 3e 22 82 1f 3d
       0.0028567966 0.027438035 0.18039584 0.038942464
0001b0 8e 64 94 3d 05 ce 0e 3d 7e 23 d4 bd 87 42 db 3c
       0.07245742 0.034864444 -0.10358332 0.026765121
0001c0 b8 b7 a2 bd 7e 82 95 bd aa 95 41 3d fb de e1 bd
       -0.07945198 -0.0730028 0.04726187 -0.11028858
0001d0 f1 ad df bd 12 35 6f 3d 00 7c 97 3d a0 51 1f 3c
       -0.109218486 0.05840022 0.07396698 0.009724051
0001e0 85 93 cc bc 2c 93 0b 3e ad 5b a4 bd bf 73 51 bd
       -0.024972687 0.1363036 -0.08025298 -0.051135775
0001f0 d9 1c 8e 3d 5b 8e 0b be a2 3a e1 bc cf f1 b4 bd
       0.06939096 -0.13628523 -0.027493779 -0.08835184
000200 ca a3 ef bb 35 67 72 3c 29 4a 4e bd 38 d3 21 be
       -0.0073132263 0.014795114 -0.050363693 -0.1580323
000210 c1 9c 36 bd 6b e6 82 bc e6 96 df bd d6 b0 47 bd
       -0.044583086 -0.015979012 -0.109174535 -0.04875263
000220 94 82 22 bc 60 dd 7e bd 26 de 66 3d 4b 42 83 bd
       -0.009918828 -0.06222284 0.0563642 -0.06409129
000230 2a e4 cf bc 37 eb da bd 9d 45 9d bd a2 59 b9 bd
       -0.025377352 -0.10689395 -0.07679293 -0.09050299
000240 aa e5 25 bd de 36 02 be 37 af 40 3b 0c 9a 3c bc
       -0.040502228 -0.12716243 0.0029401311 -0.011511337
000250 d4 c1 c5 3a 74 4e d2 bd 77 36 56 3d c1 1b 21 bd
       0.0015087673 -0.1026887 0.052298035 -0.03933311
000260 c1 15 00 3c 2a 18 25 bc 0d 34 7f bd 84 59 2a 3a
       0.007817687 -0.010076562 -0.0623055 0.0006498324
000270 62 9a 05 bd 9b 1d c2 bd 66 b6 8c 3b db 85 f8 bc
       -0.032617934 -0.09478303 0.0042942045 -0.030337265
000280 ca 9d 4a bd 14 e0 9f bd b9 6e 21 bd 5b c2 99 3d
       -0.049466886 -0.078064114 -0.039412234 0.075077735
000290 d9 f5 35 3b b1 36 ea bd 6c ea 6e 3b e8 76 05 bc
       0.0027764945 -0.11436213 0.0036455644 -0.008146025
0002a0 3a 7e d8 bc df da 2a bd 99 01 59 3d a3 ec 7e bd
       -0.026427377 -0.041712638 0.05298004 -0.062237393
0002b0 9d e8 17 bd 06 fe f1 bd e6 ff b7 bb 9d c6 00 be
       -0.03708707 -0.11816029 -0.0056152223 -0.12575765
0002c0 7c 34 0e bd 9d 1c 04 ba cf b1 b8 bd ff be d4 3d
       -0.03471802 -0.0005039664 -0.09018289 0.10387992
0002d0 e7 a2 76 3d 11 89 ff bc 3a f2 71 3b 6e e8 7e bd
       0.06021395 -0.031193288 0.003691806 -0.06223338
0002e0 28 28 77 bc b2 c6 b4 bd 6b db b0 bd 5a 23 4c 3c
       -0.015085258 -0.088269606 -0.08635601 0.0124596
0002f0 b6 b1 13 3d 0b 27 08 bd 48 e8 a3 bc 7b ca fb 3c
       0.03605815 -0.03324036 -0.020008221 0.030736199
000300 f8 37 bd bd bf 9b be 3d 11 fd 5e bc e3 b0 f0 3d
       -0.09239191 0.0930705 -0.01361014 0.117524885
000310 0b 4f 2f 3e b6 10 3c be b2 75 2a bd d2 e9 a7 3d
       0.17119996 -0.1836575 -0.04161615 0.081988946
000320 a2 82 eb bc 63 4e 60 bd bd ce 59 bd ca c1 df 3c
       -0.028748814 -0.054762255 -0.053175677 0.027314086
000330 f4 0c f8 3d 16 c2 40 bd f9 5b 8a bd 16 b9 fa 3c
       0.121118456 -0.047060095 -0.06755824 0.030605834
000340 88 2a 23 bc 10 65 5e 3d 0c d2 80 3d e0 fe 26 bd
       -0.009958871 0.0542956 0.06290063 -0.04077041
000350 13 a7 49 3d c8 1c 17 be ba 2f a1 3d 1a 72 d7 3c
       0.0492316 -0.14757073 0.07870431 0.026299525
000360 67 53 6a 3d cd 54 9e 3d 54 ba 90 bc 47 92 02 bd
       0.057208445 0.07731018 -0.017666973 -0.031877782
000370 ee 15 a0 3d 7a e6 36 3d dc 0d dd 3c e9 30 8d 3c
       0.07816683 0.044653393 0.026984148 0.017235236
000380 e2 eb 54 bd 93 4f 99 3d 78 2e 32 be 58 71 65 bd
       -0.051982768 0.07485881 -0.17400539 -0.056016296
000390 5d 2b b5 3c 12 23 f6 bd 00 b0 13 bc 2f 75 39 3c
       0.022115404 -0.12018408 -0.00901413 0.011319443
0003a0 a1 33 b0 3d 09 33 e6 bb 8d dd 12 3d 44 ab a3 3d
       0.086035974 -0.007025127 0.03585582 0.07991651
0003b0 24 a6 c1 bd 6d a6 ce 3c b8 8c b6 3c c6 cf 69 3d
       -0.09455517 0.025225842 0.022283897 0.057082914
0003c0 fc c6 da bd db 64 90 3c f5 80 0c bd 81 b2 7d bc
       -0.106824845 0.017626217 -0.03430267 -0.015484453
0003d0 66 e7 ea 3b 1f 1c 76 3d db 02 e3 bc 9f 97 82 3a
       0.007168698 0.060085412 -0.027711323 0.00099634
0003e0 ed b2 dd 3c e4 95 0b bd db 5a c6 3d fe 9f c3 3d
       0.027062858 -0.034078494 0.09685298 0.095520005
0003f0 07 2f 8a bd 71 f1 7d bd d9 e3 c5 bb 49 8d c1 bd
       -0.06747251 -0.061997835 -0.0060391244 -0.09450776

sequential/dense_1/MatMul f4 [84, 120]
000000 77 ef 51 be 41 7a ed 3c b2 92 d4 3d ef a2 00 3e
       -0.20501505 0.02898896 0.103795424 0.12562154
000010 e6 5c d0 bc 85 86 61 3e 7a 00 14 bd 08 d6 e6 3d
       -0.025434922 0.22023971 -0.036133267 0.11271292
000020 e0 03 3c 3d 73 ce 13 be ff 17 94 bd b4 e7 20 3e
       0.045902133 -0.14434223 -0.072311394 0.15713388
000030 b6 14 bd 3d a1 36 0a 3e 8e 5c cd bd 1d fe 9c 3d
       0.09232466 0.13497402 -0.10027419 0.07665656
000040 3d f1 eb 3c ea 07 3e bd e8 43 72 3e 8d 84 6f be
       0.028801555 -0.046394266 0.23658717 -0.23390408
000050 42 ed bd bd a8 8e ef 3d 51 08 58 be 20 85 78 3b
       -0.09273769 0.116971314 -0.21096922 0.0037921146
000060 6d ee 24 be f7 75 e7 bd 5c 46 01 bd d7 70 39 be
       -0.16106577 -0.11301797 -0.03156124 -0.18109451
000070 1f d4 d8 bd bd 85 00 3e 1a 07 48 3d bc 1a 4b be
       -0.10587334 0.12551017 0.048834898 -0.19834417
000080 af 90 97 3c 23 51 14 bd 64 c6 44 3e 49 c8 06 3e
       0.018501608 -0.03621019 0.19216305 0.1316234
000090 ec d1 14 3e 0e 79 d1 bd a8 06 05 be 1d 2d 6d be
       0.14533204 -0.102281675 -0.1299082 -0.2316174
0000a0 67 b7 ac be f7 45 11 be 87 31 8e bc a5 2b a1 3d
       -0.33733675 -0.14186846 -0.0173576 0.07869653
0000b0 9b bf 80 bd 9d 1a 8e bd 49 6f 26 3e 66 f0 a6 3d
       -0.06286546 -0.0693867 0.1625339 0.08151321
0000c0 75 f2 52 be 15 35 08 3e c7 25 7d bc 77 96 21 3e
       -0.20600303 0.13301499 -0.015450901 0.15780054
0000d0 ce 0f 8b bd 0d 56 76 be 88 29 d0 3d 61 5b a0 bc
       -0.06790124 -0.24056263 0.101641715 -0.019574823
0000e0 93 4f 30 3e 5e 4d dd 3d 93 e1 ec bc d2 8e 2f 3e
       0.17217855 0.10805772 -0.028916156 0.17144325
0000f0 69 a9 01 bd 96 f5 de bd 89 fd 59 3d 31 9d c1 3d
       -0.031655703 -0.108866856 0.053220306 0.0945381
000100 7e 76 03 3e a1 97 29 be 3a e9 4d 3c 34 15 39 be
       0.1283817 -0.16561748 0.012567813 -0.18074495
000110 c9 f6 d0 bd db cd 58 be 5f 8e fc bd 4f 37 65 3e
       -0.102033205 -0.21172278 -0.12331843 0.2238438
000120 19 c6 27 be ab a8 a1 3d d6 ec 8f bc 97 92 67 3d
       -0.16384162 0.07893499 -0.017568987 0.056536283
000130 17 3d 09 be 84 18 cf 3d 6c 3c 0e 3e a1 89 29 be
       -0.1340221 0.10112098 0.13890237 -0.16556408
000140 13 78 5f be 2e 60 be bc 66 a8 9f bc 5c 63 e7 3d
       -0.21823148 -0.023239221 -0.019489478 0.11298248
000150 af bb 7f 3d 16 d6 dd bd 88 50 1e be 58 db b7 3d
       0.06243485 -0.10831849 -0.15460408 0.089773834
000160 84 f5 a8 3d c4 18 97 3d 77 6e 60 bd e7 0f 08 3e
       0.082499534 0.073777705 -0.054792847 0.13287316
000170 ac 96 2a 3e cc bd 97 bc 87 66 02 3e 36 f0 d1 bd
       0.1665904 -0.01852312 0.12734424 -0.10250895
000180 7c e6 60 3d 29 c0 62 3d 29 4f b3 bd ad fb 21 3e
       0.054907307 0.05535904 -0.08755333 0.15818663
000190 48 55 e6 3d b4 94 49 3e de a2 c8 bd 2f 07 c5 3d
       0.11246735 0.19685632 -0.097966895 0.09620511
0001a0 a9 0a 02 3e c7 7c af 3d 62 e4 a3 3d 77 2b d7 3d
       0.12699379 0.08568721 0.08002545 0.10506337
0001b0 24 61 25 3e 60 84 da 3c 5a d9 4d bd 6f 5f 2c bd
       0.16150337 0.02667445 -0.05025611 -0.0420832
0001c0 93 75 c1 3d 0e 6c 8d bc 67 b8 a4 bd 72 69 04 3e
       0.09446254 -0.017263439 -0.080429845 0.12930849
0001d0 eb 85 4e 3e a5 25 a6 bd 91 c2 fd bd 19 89 b8 bc
       0.20168273 -0.08112649 -0.12390626 -0.02252631
0001e0 ff 2d 91 3d ee cc e6 bd 65 55 0c 3e 60 67 73 3d
       0.07088851 -0.11269556 0.1370445 0.059424758
0001f0 48 c0 21 be fb c0 00 3e 8e eb cb 3d c2 4b 9c bd
       -0.15796006 0.12573616 0.09957038 -0.07631637
000200 3c 6a 0c 3e 6b b9 20 3d 82 b4 3c be 2a ff e2 bc
       0.137124 0.03923933 -0.18428233 -0.027709562
000210 9a b8 9f bd 95 af 07 3e 08 49 e8 bd 30 db 33 be
       -0.07798882 0.13250573 -0.113420546 -0.17564082
000220 c4 12 77 3e 8e 29 0a be 9b 4b 99 3e 24 2f cb bd
       0.24128252 -0.13492414 0.29940495 -0.09921101
000230 37 39 9c bd 86 6b 54 bc 1f 94 f8 bd 21 8d c9 3d
       -0.076281 -0.012965089 -0.12137627 0.09841371
000240 01 08 b1 bd 0c c9 a7 bd cf b8 7c bd 0c 2b ca 3d
       -0.08644105 -0.081926435 -0.061699685 0.09871492
000250 7f 00 fb 3d 25 f6 1d 3e e1 bb 50 3e 7a c6 d9 3d
       0.12255954 0.15425928 0.2038417 0.106335595
000260 df e0 60 bd 21 b4 07 3e 7c f0 d8 ba f9 3f 98 3d
       -0.054901954 0.13252307 -0.0016551162 0.07434077
000270 c7 14 47 3b ee 9b cd bd 8c 4b 2d 3d d3 3b 40 bd
       0.0030377374 -0.10039507 0.042308375 -0.046932053
000280 96 1b 3f 3d b4 aa b9 3d 60 f6 bd 3d dc e8 03 be
       0.046657167 0.09065762 0.09275508 -0.12881798
000290 3f 96 93 bd a3 c3 af 3c 5f 3c 35 be 50 b3 4a be
       -0.072063915 0.021455592 -0.17698811 -0.19794965
0002a0 54 da 8e bd ce 21 c3 bd 1a 43 1d be bf 5f 80 bd
       -0.069752365 -0.09527932 -0.15357628 -0.06268262
0002b0 6a e2 39 be da b0 79 3c 9d 76 1f 3e 8f 0c 14 3d
       -0.18152776 0.015239919 0.15572591 0.03614479
0002c0 40 00 9e bb 35 cd 8b 3c 3f a9 2b be ff 92 72 bd
       -0.004821807 0.017065624 -0.16763781 -0.059222218
0002d0 71 0e 87 bd 81 2a e3 bd b3 84 29 3e af ac e7 3d
       -0.06594551 -0.11092091 0.16554527 0.11312234
0002e0 02 92 0c bd a7 af b7 bd 7a 7f 6d bd 9b 82 1a bd
       -0.03431893 -0.0896905 -0.0579829 -0.03772221
0002f0 7e 3b 33 bd 69 3a a0 3c ee e5 c4 3d 11 42 06 3e
       -0.043757908 0.019559102 0.09614168 0.1311114
000300 de 03 d4 3d 1e 54 30 3c d3 1d 28 be 39 89 b7 bd
       0.103523 0.010762243 -0.16417627 -0.0896172
000310 b8 99 c2 3d ef ef f7 3d 18 80 d0 3d 9b 4b 39 be
       0.09501976 0.121063106 0.10180682 -0.18095247
000320 81 ea 11 be 0b b0 13 3e f5 36 4e be 28 fa 3b be
       -0.14249612 0.14422624 -0.20138152 -0.18357146
000330 33 f3 93 bd f9 d6 0e be 55 0c f6 bd 37 92 49 bd
       -0.07224121 -0.13949193 -0.12014071 -0.049211707
000340 54 a7 9d 3d da 54 91 be b5 de 44 be ab 8e fa 3d
       0.07697931 -0.2838505 -0.19225581 0.12234243
000350 60 99 da 3d f9 d2 28 bc 90 9d 27 be b4 f9 48 bc
       0.10673785 -0.010304206 -0.16368699 -0.012266565
000360 ac 9e 29 3e 15 cc bd 3d af fd 23 be 1f c2 0d be
       0.16564435 0.09267441 -0.16014741 -0.13843583
000370 0f 6f 12 3d 9e 24 48 3b 69 25 ea 3d b4 8d fe 3d
       0.035750445 0.0030539404 0.11432917 0.124293715
000380 a8 cc 4d 3e 3e f4 cc bd f0 be 42 3e cf 59 8f bd
       0.20097601 -0.10007523 0.1901815 -0.069995515
000390 10 55 e2 bc f2 34 2d bd 04 b3 09 bc 7f 6e 34 be
       -0.027628452 -0.04228682 -0.008404497 -0.17620276
0003a0 ef f1 38 3e 55 fc 65 bd cc f6 35 be 2c bd 8d bd
       0.1806104 -0.056148846 -0.17769927 -0.06920847
0003b0 11 2e c7 3d 44 8c 3e 3e 32 f2 c5 ba 7f 61 9f bd
       0.09725583 0.18608195 -0.0015102087 -0.07782268
0003c0 3e 99 b0 3c c7 24 73 bd 6a 04 f7 3d b2 80 f6 3d
       0.021557447 -0.059361245 0.12061389 0.120362654
0003d0 86 0a 36 3d b0 e5 6b bd ba f4 e4 bc e8 b7 75 bc
       0.04444363 -0.057592094 -0.027948726 -0.01499746
0003e0 4c b0 8a bc 0b 2d 8a 3c 90 e4 29 3e 30 8a 10 bd
       -0.016929768 0.016867181 0.16591096 -0.035288036
0003f0 0a 84 bc bd 81 f5 43 3e f2 bb 2d be 98 22 08 3d
       -0.09204872 0.19136621 -0.16966227 0.033236116

sequential/dense_2/MatMul f4 [10, 84]
000000 ad 71 8a 3e 82 fd 1b 3e 97 64 8d 3e 4c 81 43 bd
       0.27039853 0.15233424 0.27615806 -0.04773073
000010 2a f6 6f be a1 8b 67 bc db b0 91 be ff 3b 38 be
       -0.23433748 -0.014132411 -0.28455243 -0.17991637
000020 55 7b 59 be 2c f6 27 3e c3 ab 9d bc 9b 7d eb bd
       -0.21238454 0.16402501 -0.019246941 -0.11498567
000030 99 92 0c bd 6f 68 99 bd 36 3d 93 be 25 a4 7b be
       -0.034319494 -0.07490622 -0.28757638 -0.24574335
000040 b2 f3 0a 3d e1 a8 a2 3d 9e b8 25 3e 63 fd 84 3d
       0.033923812 0.07942367 0.16183707 0.06493642
000050 14 6d 29 bd ab 48 8e 3e 1a 46 fe bd 32 d2 82 3d
       -0.04136379 0.27789816 -0.124157146 0.06387748
000060 cb af 9b bd 4c 61 1a 3e 71 53 3b be df 37 59 3e
       -0.07601889 0.15076178 -0.18293549 0.2121272
000070 73 3b 20 be e9 c3 15 3e c1 8a 4b bb 7a 98 5a 3e
       -0.15647678 0.14625515 -0.0031058046 0.21347228
000080 d0 1d 5a 3d b0 ef 5c be 9f 16 8e be 41 0d b1 bd
       0.053251088 -0.21575809 -0.27751634 -0.08645106
000090 17 08 65 3e 73 2b 5d 3e e7 e9 3c be d7 36 90 3e
       0.22366367 0.21598606 -0.18448602 0.2816684
0000a0 58 64 9f be 98 00 82 be 93 98 f2 3c b3 59 87 be
       -0.31131244 -0.25391078 0.029613769 -0.26435623
0000b0 51 50 98 be e7 92 66 3e cd 50 37 be 48 74 72 3e
       -0.29748777 0.22516976 -0.17901917 0.2367717
0000c0 67 f4 8f 3e 8f 9f b8 bc c0 44 32 be 17 d4 19 3e
       0.28116152 -0.022537021 -0.17409039 0.15022312
0000d0 4e d5 27 3e 22 da 6c 3e dd a5 13 be 4d 54 8e 3d
       0.16389963 0.23130086 -0.1441874 0.06949673
0000e0 bb 66 38 be 08 e7 14 bd 47 ed a1 3e af fa 6f 3d
       -0.18007939 -0.03635314 0.3162634 0.05858868
0000f0 1e f9 53 be ac e7 b5 3c 63 a8 8c be 6b 26 ce bd
       -0.207005 0.022205196 -0.2747222 -0.100659214
000100 46 70 fd bd f0 52 72 bc 3e 66 57 be 02 6f 05 3d
       -0.1237493 -0.014790282 -0.21035096 0.03257657
000110 bb db 9a 3e da e4 0c ba 64 ef 13 3d a3 62 98 3b
       0.30245766 -0.0005374678 0.036116973 0.0046504303
000120 a1 a5 4a 3c b7 f2 8a 3d ee 56 ec 3d cc 93 97 3d
       0.012368591 0.067845754 0.11540018 0.07401237
000130 30 45 81 be ec be 5a 3e 5e 54 ea 3d 39 00 c7 3d
       -0.25248098 0.21361893 0.11441873 0.09716839
000140 ee e0 c7 bd 80 b5 4c 3e b3 94 74 be 44 15 6b 3c
       -0.09759699 0.19991112 -0.23884849 0.014348332
000150 ec 49 81 bd d8 af f2 bd fc f8 14 be 04 87 1a be
       -0.063129276 -0.11849946 -0.14548105 -0.15090567
000160 48 7b d9 bd b0 35 7d be 5c 0f a8 be 76 c6 5b 3e
       -0.10619217 -0.24727511 -0.32824218 0.21462426
000170 15 03 63 be 33 97 99 3e cc df 1d 3e da 47 26 3e
       -0.22169144 0.29998168 0.15417403 0.16238347
000180 14 3f cd 3d c5 1a 2a 3d 73 69 65 3e 17 6c 04 be
       0.10021797 0.041529436 0.22403507 -0.12931858
000190 f8 73 5f 3e a3 42 18 3e d3 5f 54 be 60 fe 18 be
       0.21821582 0.1486917 -0.20739679 -0.14940786
0001a0 57 cb 91 3e e1 6f 72 bd 15 95 02 3d 3b 98 3b be
       0.28475448 -0.059188727 0.031880457 -0.1831979
0001b0 8d bf 36 3e 61 af 9f be 88 f0 82 3b f7 c5 9e 3e
       0.17846508 -0.3118849 0.0039959587 0.3101041
0001c0 2d b5 d5 3d 4d 45 ae 3e f1 a2 d8 3d 74 b4 33 3e
       0.10434947 0.34037247 0.105779536 0.17549306
0001d0 cd a2 57 bd 9b 3f 0f be bd 7b 68 be 10 6f 80 3e
       -0.052645493 -0.13989107 -0.22703452 0.25084734
0001e0 73 4b 7f 3e f6 df 1c be 4b c7 8b 3e 2e 62 92 be
       0.24931125 -0.1531981 0.27300486 -0.2859053
0001f0 ed ef 39 be ed 7b 9c 3d 73 e1 81 3e 72 a0 ad bd
       -0.1815793 0.076408245 0.25367317 -0.08477868
000200 9e d9 98 3e a4 c4 93 3e 7a 6c f4 3d d7 21 3f bd
       0.2985353 0.28860962 0.11934753 -0.04666313
000210 6f 41 d6 bd ef d8 75 be 88 9f 11 3d de c0 8a 3e
       -0.10461699 -0.24008535 0.03555253 0.2710027
000220 8e 98 9b 3d 82 46 77 be 45 12 8e 3d 1a 2c 3f be
       0.07597457 -0.2414799 0.069370784 -0.18669167
000230 24 5b 46 be 03 73 33 3e e6 27 0d 3e 01 6b 03 be
       -0.19370705 0.17524342 0.13784751 -0.12833788
000240 2f b9 c3 3d d8 7b b4 be e4 9f 60 bd a4 af 9c 3e
       0.09556805 -0.35250735 -0.054839984 0.30602753
000250 31 0b 3a be 35 f2 2d 3e 66 42 2f 3e 86 df 12 3e
       -0.18168332 0.16986926 0.17115173 0.1434308
000260 0f 52 1b bd 6c 87 33 3e fc c8 d7 bd 75 b4 8a be
       -0.037920054 0.17532128 -0.105363816 -0.27090803
000270 83 e1 11 bc ed ab 6a be 4f 6b 13 3e 59 06 fe bd
       -0.008903864 -0.22917147 0.14396404 -0.124035545
000280 e2 10 0c 3d 91 af 2b bd 87 72 c7 3b 92 0e f6 3d
       0.03419579 -0.04191548 0.006086651 0.12014498
000290 65 79 18 be 5e b2 45 3e d6 46 ea bd 45 0b 09 3e
       -0.14890058 0.19306323 -0.11439292 0.13383205
0002a0 a9 27 94 3e b3 e8 44 3e 0b 16 70 bc 33 00 c6 bd
       0.28936508 0.19229393 -0.014653693 -0.09668007
0002b0 fa 5c 8e bd 5e 9a 87 be 7a 59 e4 3d c4 b1 5c be
       -0.069513276 -0.2648496 0.11149879 -0.21552187
0002c0 68 b3 79 be df d8 04 be 37 e3 6e 3e af 70 bc 3d
       -0.24384844 -0.12973355 0.23328863 0.0920118
0002d0 6d 64 a1 3e 75 8c 65 bd 71 ea 17 3e 5d 88 98 3e
       0.3152193 -0.056042153 0.14835526 0.29791537
0002e0 6b 04 41 3e 21 18 2d bd 49 24 83 be bb 8e 8b 3e
       0.18849342 -0.04225934 -0.2561362 0.27257332
0002f0 38 94 85 3e ec cf 82 3e 16 1d d8 3d 9e cf 38 3e
       0.26089644 0.25549257 0.10552423 0.1804795
000300 3e 87 a7 bd 9c 2a 0e be a4 70 9a bc b2 20 32 3d
       -0.08180092 -0.13883442 -0.01885254 0.043488212
000310 1b 09 52 bd f5 49 22 be a0 08 76 3e 3f b0 20 3e
       -0.051278215 -0.15848525 0.24026728 0.15692233
000320 3d 11 2c be 44 00 04 3e 12 1a 31 3e 3f ba b7 bd
       -0.16803451 0.12890726 0.17295101 -0.089710705
000330 e0 0a 6f 3e e9 18 55 be 55 2c c1 3d cc 23 f2 3c
       0.23343992 -0.20810284 0.09432284 0.029558085
000340 ad 53 10 3e ff a2 83 be 7f 83 4b 3d a9 48 1d bd
       0.1409442 -0.25710294 0.04968595 -0.038399372
000350 29 93 73 3e 26 45 40 3c 94 f6 0a 3d 3c 34 e7 3d
       0.23786606 0.011735236 0.03392656 0.1128926
000360 08 d0 35 3e 06 ca 13 be 44 d7 47 bd 0e 08 70 3c
       0.17755139 -0.14432535 -0.048789278 0.014650358
000370 8a 6b 9b be a4 b4 61 be d2 ff 8b be 25 09 0b be
       -0.30355483 -0.22041565 -0.27343613 -0.13577707
000380 d7 4d 45 3e f7 78 41 3d e8 7e 89 3e 47 d9 c6 bd
       0.19267975 0.0472345 0.26854634 -0.09709411
000390 96 3a 99 be f3 01 7f 3e 17 00 47 be 7a 40 21 be
       -0.2992751 0.24903087 -0.19433628 -0.15747252
0003a0 3c 91 10 3e ab b2 a3 be 02 20 f2 3d c9 e0 ca 3d
       0.14117903 -0.3197225 0.11822511 0.099061556
0003b0 9c 32 11 be de 3e 00 bd fe b8 9f bd 10 29 32 be
       -0.14179462 -0.031309955 -0.07798956 -0.17398477
0003c0 3b 02 00 be 73 23 2f be df 53 05 3d 71 0d 4c 3e
       -0.12500851 -0.17103367 0.03255069 0.19927002
0003d0 2a 6e 1f be ce aa 94 be 08 04 08 3e 83 68 c9 3d
       -0.15569368 -0.29036564 0.13282788 0.09834387
0003e0 50 b6 32 3e 37 b3 56 3d 55 a6 80 3e 21 f1 f6 bd
       0.17452359 0.052417006 0.251269 -0.120577104
0003f0 f9 79 70 be 58 d6 b5 bd 50 80 55 3e b8 88 7b be
       -0.23484029 -0.088787735 0.20849729 -0.24563873
