saved model/pruned_model_tflite_quantized_10x.tflite (tflite, 113272 bytes, 5 tensors)

sequential/dense_2/MatMul i1 [10, 84] scale=0.0027835458 zero_point=0
000000 61 37 63 ef ac fb 9a bf b4 3b f9 d7 f4 e5 99 a8
       0.27000394 0.15309502 0.27557102 -0.047320276 -0.23381785 -0.013917729 -0.28392166 -0.18093048 -0.21154948 0.1642292 -0.01948482 -0.11412538 -0.033402547 -0.075155735 -0.28670523 -0.24495202
000010 0c 1d 3a 17 f1 64 d3 17 e5 36 be 4c c8 35 ff 4d
       0.033402547 0.080722824 0.16144565 0.06402155 -0.041753188 0.2783546 -0.12525956 0.06402155 -0.075155735 0.15031147 -0.18371402 0.21154948 -0.15587856 0.14752792 -0.0027835458 0.21433303
000020 13 b2 9c e1 50 4e be 65 90 a5 0b a1 95 51 c0 55
       0.05288737 -0.21711656 -0.2783546 -0.08628992 0.22268367 0.21711656 -0.18371402 0.28113812 -0.31175712 -0.25330266 0.030619003 -0.26443684 -0.2978394 0.2254672 -0.17814693 0.23660138
000030 65 f8 c1 36 3b 53 cc 19 bf f3 72 15 b6 08 9d dc
       0.28113812 -0.022268366 -0.17536338 0.15031147 0.1642292 0.2310343 -0.14474438 0.06958865 -0.18093048 -0.036186095 0.31732422 0.05845446 -0.20598239 0.022268366 -0.27557102 -0.10020765
000040 d4 fb b4 0c 6d 00 0d 02 04 18 29 1b a5 4d 29 23
       -0.12247601 -0.013917729 -0.21154948 0.033402547 0.30340648 0.0 0.036186095 0.0055670915 0.011134183 0.066805094 0.11412538 0.075155735 -0.25330266 0.21433303 0.11412538 0.097424105
000050 dd 48 aa 05 e9 d5 cc ca da a7 8a 4d b0 6c 37 3a
       -0.097424105 0.2004153 -0.23938493 0.013917729 -0.06402155 -0.11969247 -0.14474438 -0.15031147 -0.10577474 -0.24773557 -0.3284584 0.21433303 -0.22268367 0.30062294 0.15309502 0.16144565
000060 24 0f 50 d2 4e 35 b5 ca 66 eb 0b be 40 90 01 6f
       0.10020765 0.041753188 0.22268367 -0.1280431 0.21711656 0.14752792 -0.20876594 -0.15031147 0.28392166 -0.05845446 0.030619003 -0.18371402 0.17814693 -0.31175712 0.0027835458 0.30897358
000070 25 7a 26 3f ed ce ae 5a 5a c9 62 99 bf 1b 5b e2
       0.10299119 0.33959258 0.10577474 0.17536338 -0.05288737 -0.1391773 -0.22825076 0.25051913 0.25051913 -0.15309502 0.27278748 -0.28670523 -0.18093048 0.075155735 0.25330266 -0.083506376
000080 6b 68 2b ef da aa 0d 61 1b a9 19 bd ba 3f 32 d2
       0.2978394 0.28948876 0.11969247 -0.047320276 -0.10577474 -0.23938493 0.036186095 0.27000394 0.075155735 -0.24216849 0.06958865 -0.18649757 -0.19484821 0.17536338 0.1391773 -0.1280431
000090 22 81 ec 6e bf 3d 3d 34 f2 3f da 9f fd ae 34 d3
       0.09464055 -0.35351032 -0.055670917 0.30619004 -0.18093048 0.16979629 0.16979629 0.14474438 -0.03896964 0.17536338 -0.10577474 -0.27000394 -0.008350637 -0.22825076 0.14474438 -0.12525956
0000a0 0c f1 02 2b cb 45 d7 30 68 45 fb dd e7 a1 28 b3
       0.033402547 -0.041753188 0.0055670915 0.11969247 -0.14752792 0.19206466 -0.11412538 0.13361019 0.28948876 0.19206466 -0.013917729 -0.097424105 -0.06958865 -0.26443684 0.111341834 -0.21433303
0000b0 a8 d1 54 21 71 ec 35 6b 44 f1 a4 62 5e 5c 26 41
       -0.24495202 -0.13082665 0.23381785 0.09185701 0.31454068 -0.055670917 0.14752792 0.2978394 0.1892811 -0.041753188 -0.2560862 0.27278748 0.2616533 0.2560862 0.10577474 0.18093048
0000c0 e3 ce f9 10 ee c7 56 38 c4 2e 3e e0 54 b5 22 0b
       -0.080722824 -0.1391773 -0.01948482 0.044536732 -0.050103825 -0.15866211 0.23938493 0.15587856 -0.16701275 0.1280431 0.17257984 -0.089073464 0.23381785 -0.20876594 0.09464055 0.030619003
0000d0 33 a4 12 f2 55 04 0c 29 40 cc ee 05 93 b1 9e cf
       0.14196083 -0.2560862 0.050103825 -0.03896964 0.23660138 0.011134183 0.033402547 0.11412538 0.17814693 -0.14474438 -0.050103825 0.013917729 -0.30340648 -0.21990012 -0.27278748 -0.13639374
0000e0 45 11 60 dd 94 59 ba c7 33 8d 2a 24 cd f5 e4 c1
       0.19206466 0.047320276 0.26722038 -0.097424105 -0.30062294 0.24773557 -0.19484821 -0.15866211 0.14196083 -0.32010776 0.11690892 0.10020765 -0.14196083 -0.030619003 -0.07793928 -0.17536338
0000f0 d3 c3 0c 48 c8 98 30 23 3f 13 5a d5 ac e0 4b a8
       -0.12525956 -0.16979629 0.033402547 0.2004153 -0.15587856 -0.28948876 0.13361019 0.097424105 0.17536338 0.05288737 0.25051913 -0.11969247 -0.23381785 -0.089073464 0.20876594 -0.24495202

sequential/dense_1/MatMul i1 [84, 120] scale=0.0026561948 zero_point=0
000000 b3 0b 27 2f f6 53 f2 2a 11 ca e5 3b 23 33 da 1d
       -0.204527 0.029218143 0.1035916 0.12484116 -0.02656195 0.22046417 -0.037186727 0.11156018 0.045155313 -0.14343452 -0.07171726 0.1567155 0.09296682 0.13546593 -0.10093541 0.07702965
000010 0b ef 59 a8 dd 2c b1 01 c3 d5 f4 bc d8 2f 12 b5
       0.029218143 -0.045155313 0.23640133 -0.23374514 -0.09296682 0.11687257 -0.20983939 0.0026561948 -0.16202788 -0.11421638 -0.031874336 -0.18062125 -0.1062478 0.12484116 0.04781151 -0.19921461
000020 07 f2 48 32 37 d9 cf a9 81 cb f9 1e e8 e6 3d 1f
       0.018593363 -0.037186727 0.19124603 0.13280974 0.14609072 -0.1035916 -0.13015355 -0.23108895 -0.33733675 -0.14077833 -0.018593363 0.079685844 -0.06374867 -0.06906106 0.16202788 0.08234204
000030 b2 32 fa 3b e6 a5 26 f9 41 29 f5 41 f4 d7 14 24
       -0.2071832 0.13280974 -0.015937168 0.1567155 -0.06906106 -0.24171373 0.10093541 -0.018593363 0.17265266 0.10890399 -0.029218143 0.17265266 -0.031874336 -0.10890399 0.0531239 0.09562302
000040 30 c2 05 bc da b0 d2 54 c2 1e f9 15 ce 26 34 c2
       0.12749735 -0.16468409 0.013280975 -0.18062125 -0.10093541 -0.2124956 -0.12218496 0.22312036 -0.16468409 0.079685844 -0.018593363 0.05578009 -0.13280974 0.10093541 0.13812213 -0.16468409
000050 ae f7 f9 2b 18 d7 c6 22 1f 1c eb 32 3f f9 30 d9
       -0.21780798 -0.023905754 -0.018593363 0.11421638 0.06374867 -0.10890399 -0.1540593 0.090310626 0.08234204 0.074373454 -0.05578009 0.13280974 0.16734028 -0.018593363 0.12749735 -0.1035916
000060 15 15 df 3c 2a 4a db 24 30 20 1e 28 3d 0a ed f0
       0.05578009 0.05578009 -0.08765443 0.15937169 0.11156018 0.19655842 -0.09827921 0.09562302 0.12749735 0.084998235 0.079685844 0.1062478 0.16202788 0.02656195 -0.050467703 -0.042499118
000070 24 fa e2 31 4c e1 d1 f8 1b d6 34 16 c5 2f 25 e3
       0.09562302 -0.015937168 -0.079685844 0.13015355 0.20187081 -0.08234204 -0.12484116 -0.021249559 0.07171726 -0.11156018 0.13812213 0.058436286 -0.1567155 0.12484116 0.09827921 -0.07702965
000080 34 0f bb f6 e3 32 d5 be 5b cd 71 db e3 fb d2 25
       0.13812213 0.039842922 -0.18327744 -0.02656195 -0.07702965 0.13280974 -0.11421638 -0.17530885 0.24171373 -0.13546593 0.30015 -0.09827921 -0.07702965 -0.013280975 -0.12218496 0.09827921
000090 df e1 e9 25 2e 3a 4d 28 eb 32 ff 1c 01 da 10 ee
       -0.08765443 -0.08234204 -0.06109248 0.09827921 0.12218496 0.1540593 0.204527 0.1062478 -0.05578009 0.13280974 -0.0026561948 0.074373454 0.0026561948 -0.10093541 0.042499118 -0.04781151
0000a0 12 22 23 d0 e5 08 bd b5 e6 dc c6 e8 bc 06 3b 0e
       0.04781151 0.090310626 0.09296682 -0.12749735 -0.07171726 0.021249559 -0.17796506 -0.19921461 -0.06906106 -0.09562302 -0.1540593 -0.06374867 -0.18062125 0.015937168 0.1567155 0.037186727
0000b0 fe 06 c1 ea e7 d6 3e 2b f3 de ea f2 f0 07 24 31
       -0.0053123897 0.015937168 -0.16734028 -0.058436286 -0.06640487 -0.11156018 0.16468409 0.11421638 -0.03453053 -0.090310626 -0.058436286 -0.037186727 -0.042499118 0.018593363 0.09562302 0.13015355
0000c0 27 04 c2 de 24 2e 26 bc ca 36 b4 bb e5 cb d3 ed
       0.1035916 0.010624779 -0.16468409 -0.090310626 0.09562302 0.12218496 0.10093541 -0.18062125 -0.14343452 0.14343452 -0.20187081 -0.18327744 -0.07171726 -0.14077833 -0.11952877 -0.050467703
0000d0 1d 95 b8 2e 28 fc c2 fb 3e 23 c4 cc 0d 01 2b 2f
       0.07702965 -0.28421286 -0.19124603 0.12218496 0.1062478 -0.010624779 -0.16468409 -0.013280975 0.16468409 0.09296682 -0.15937169 -0.13812213 0.03453053 0.0026561948 0.11421638 0.12484116
0000e0 4c da 48 e6 f6 f0 fd be 44 eb bd e6 25 46 ff e3
       0.20187081 -0.10093541 0.19124603 -0.06906106 -0.02656195 -0.042499118 -0.007968584 -0.17530885 0.18062125 -0.05578009 -0.17796506 -0.06906106 0.09827921 0.18593363 -0.0026561948 -0.07702965
0000f0 08 ea 2d 2d 11 ea f5 fa fa 06 3e f3 dd 48 c0 0d
       0.021249559 -0.058436286 0.11952877 0.11952877 0.045155313 -0.058436286 -0.029218143 -0.015937168 -0.015937168 0.015937168 0.16468409 -0.03453053 -0.09296682 0.19124603 -0.16999647 0.03453053

sequential/dense/MatMul1 i1 [120, 784] scale=0.0025117726 zero_point=0
000000 08 d7 19 e3 ea 06 1f d2 e0 f7 f4 f1 f9 09 fd d7
       0.02009418 -0.10298268 0.06279431 -0.072841406 -0.055258997 0.015070636 0.07786495 -0.11554154 -0.08037672 -0.022605954 -0.030141272 -0.037676588 -0.017582407 0.022605954 -0.007535318 -0.10298268
000010 de f2 fd 14 02 28 02 f8 e5 1f 1c ed c7 15 06 17
       -0.08540027 -0.035164814 -0.007535318 0.05023545 0.005023545 0.1004709 0.005023545 -0.02009418 -0.06781786 0.07786495 0.07032963 -0.047723677 -0.14317104 0.052747224 0.015070636 0.05777077
000020 20 06 e8 02 0e fd ef 14 10 e2 0f c6 c0 0a 09 ef
       0.08037672 0.015070636 -0.060282543 0.005023545 0.035164814 -0.007535318 -0.042700134 0.05023545 0.04018836 -0.075353175 0.037676588 -0.14568281 -0.16075344 0.025117725 0.022605954 -0.042700134
000030 24 09 2c 01 06 ed 24 fe 46 14 0f e4 c6 fd ed 10
       0.090423815 0.022605954 0.11051799 0.0025117726 0.015070636 -0.047723677 0.090423815 -0.005023545 0.17582408 0.05023545 0.037676588 -0.07032963 -0.14568281 -0.007535318 -0.047723677 0.04018836
000040 06 24 19 19 e9 cc 33 fc 2a 34 17 08 eb 15 08 1d
       0.015070636 0.090423815 0.06279431 0.06279431 -0.05777077 -0.13061218 0.1281004 -0.01004709 0.10549445 0.13061218 0.05777077 0.02009418 -0.052747224 0.052747224 0.02009418 0.072841406
000050 0a 1c d6 f9 0e e2 18 23 07 3d 00 3e 2a f2 fb 12
       0.025117725 0.07032963 -0.10549445 -0.017582407 0.035164814 -0.075353175 0.060282543 0.08791204 0.017582407 0.15321812 0.0 0.1557299 0.10549445 -0.035164814 -0.012558863 0.045211907
000060 f2 f6 f4 f5 1d e8 e0 03 01 0b 48 10 1d 0e d7 0b
       -0.035164814 -0.025117725 -0.030141272 -0.027629498 0.072841406 -0.060282543 -0.08037672 0.007535318 0.0025117726 0.027629498 0.18084763 0.04018836 0.072841406 0.035164814 -0.10298268 0.027629498
000070 e0 e3 13 d4 d5 17 1d 04 f6 36 e0 ec 1c ca f5 dd
       -0.08037672 -0.072841406 0.047723677 -0.11051799 -0.10800622 0.05777077 0.072841406 0.01004709 -0.025117725 0.13563572 -0.08037672 -0.05023545 0.07032963 -0.13563572 -0.027629498 -0.08791204
000080 fd 06 ec c1 ee fa d5 ed fc e7 16 e6 f6 d5 e1 dc
       -0.007535318 0.015070636 -0.05023545 -0.15824167 -0.045211907 -0.015070636 -0.10800622 -0.047723677 -0.01004709 -0.06279431 0.055258997 -0.06530609 -0.025117725 -0.10800622 -0.07786495 -0.090423815
000090 f0 cd 01 fb 01 d7 15 f0 03 fc e7 00 f3 da 02 f4
       -0.04018836 -0.1281004 0.0025117726 -0.012558863 0.0025117726 -0.10298268 0.052747224 -0.04018836 0.007535318 -0.01004709 -0.06279431 0.0 -0.032653045 -0.095447354 0.005023545 -0.030141272
0000a0 ec e1 f0 1e 01 d2 01 fd f5 ef 15 e7 f1 d1 fe ce
       -0.05023545 -0.07786495 -0.04018836 0.075353175 0.0025117726 -0.11554154 0.0025117726 -0.007535318 -0.027629498 -0.042700134 0.052747224 -0.06279431 -0.037676588 -0.11805331 -0.005023545 -0.12558863
0000b0 f2 00 dc 29 18 f4 01 e7 fa dd de 05 0e f3 f8 0c
       -0.035164814 0.0 -0.090423815 0.10298268 0.060282543 -0.030141272 0.0025117726 -0.06279431 -0.015070636 -0.08791204 -0.08540027 0.012558863 0.035164814 -0.032653045 -0.02009418 0.030141272
0000c0 db 25 fb 2f 44 b7 ef 21 f5 ea eb 0b 30 ed e5 0c
       -0.092935584 0.092935584 -0.012558863 0.11805331 0.17080054 -0.1833594 -0.042700134 0.08288849 -0.027629498 -0.055258997 -0.052747224 0.027629498 0.12056509 -0.047723677 -0.06781786 0.030141272
0000d0 fc 16 19 f0 14 c5 1f 0a 17 1f f9 f3 1f 12 0b 07
       -0.01004709 0.055258997 0.06279431 -0.04018836 0.05023545 -0.14819458 0.07786495 0.025117725 0.05777077 0.07786495 -0.017582407 -0.032653045 0.07786495 0.045211907 0.027629498 0.017582407
0000e0 eb 1e bb ea 09 d0 fc 05 22 fd 0e 20 da 0a 09 17
       -0.052747224 0.075353175 -0.1733123 -0.055258997 0.022605954 -0.12056509 -0.01004709 0.012558863 0.08540027 -0.007535318 0.035164814 0.08037672 -0.095447354 0.025117725 0.022605954 0.05777077
0000f0 d5 07 f2 fa 03 18 f5 00 0b f2 27 26 e5 e7 fe da
       -0.10800622 0.017582407 -0.035164814 -0.015070636 0.007535318 0.060282543 -0.027629498 0.0 0.027629498 -0.035164814 0.09795913 0.095447354 -0.06781786 -0.06279431 -0.005023545 -0.095447354

sequential/conv2d_1/Conv2D i1 [16, 5, 5, 6]
000000 e1 82 e2 66 d5 23 f8 d8 d0 f6 00 27 9b d9 b3 e0
       -31 -126 -30 102 -43 35 -8 -40 -48 -10 0 39 -101 -39 -77 -32
000010 a3 55 c4 27 c9 72 11 4b 38 03 3a 5e 38 3c e4 02
       -93 85 -60 39 -55 114 17 75 56 3 58 94 56 60 -28 2
000020 09 f5 d9 24 f8 0f 2b 9a ea 23 ea ce da 95 81 14
       9 -11 -39 36 -8 15 43 -102 -22 35 -22 -50 -38 -107 -127 20
000030 b4 fc 0d fd b1 1b 44 a9 18 0a 0c 46 bf 56 11 b2
       -76 -4 13 -3 -79 27 68 -87 24 10 12 70 -65 86 17 -78
000040 16 33 01 e0 44 02 dc 02 c8 ed f6 90 d2 99 c0 03
       22 51 1 -32 68 2 -36 2 -56 -19 -10 -112 -46 -103 -64 3
000050 e7 af bc a0 f3 eb 9f f4 d7 c6 c0 2d 0f ca 21 28
       -25 -81 -68 -96 -13 -21 -97 -12 -41 -58 -64 45 15 -54 33 40
000060 e1 24 b4 d8 1c cc 01 41 e6 2d 51 43 2a 3f f3 d2
       -31 36 -76 -40 28 -52 1 65 -26 45 81 67 42 63 -13 -46
000070 53 45 56 64 fd d7 ed fa 3b dd 15 ba 20 ee 39 24
       83 69 86 100 -3 -41 -19 -6 59 -35 21 -70 32 -18 57 36
000080 3b 05 3c c7 03 cf 2d 16 ec 01 de 37 1a df 13 18
       59 5 60 -57 3 -49 45 22 -20 1 -34 55 26 -33 19 24
000090 db ed d7 b1 34 fa e4 cb 3a ea 00 03 23 cd 47 c0
       -37 -19 -41 -79 52 -6 -28 -53 58 -22 0 3 35 -51 71 -64
0000a0 d7 ac 9f e1 ec 09 2f ec 11 c7 63 01 0c a1 55 0f
       -41 -84 -97 -31 -20 9 47 -20 17 -57 99 1 12 -95 85 15
0000b0 1f fe 18 c8 0a dd 17 0f f9 19 41 da 07 c8 c5 e0
       31 -2 24 -56 10 -35 23 15 -7 25 65 -38 7 -56 -59 -32
0000c0 b0 dd cc 2c a7 dc 2c c6 c9 2f de e2 0b 02 37 2d
       -80 -35 -52 44 -89 -36 44 -58 -55 47 -34 -30 11 2 55 45
0000d0 f8 aa 18 05 4d 48 dc 20 20 f0 2c e8 08 11 1f eb
       -8 -86 24 5 77 72 -36 32 32 -16 44 -24 8 17 31 -21
0000e0 d0 d3 e0 31 35 1e c7 e7 00 20 15 f3 31 31 26 3b
       -48 -45 -32 49 53 30 -57 -25 0 32 21 -13 49 49 38 59
0000f0 20 e1 e1 1b fa ff 0d 23 cd e6 fc 2d 18 08 e7 03
       32 -31 -31 27 -6 -1 13 35 -51 -26 -4 45 24 8 -25 3

sequential/conv2d/Conv2D i1 [6, 5, 5, 1]
000000 bd 00 5b af d9 33 06 2b 81 db ce 07 d0 b6 dc 93
       -67 0 91 -81 -39 51 6 43 -127 -37 -50 7 -48 -74 -36 -109
000010 6b 64 2d 29 e5 60 19 06 69 c7 1a 0b 0c 0e a1 81
       107 100 45 41 -27 96 25 6 105 -57 26 11 12 14 -95 -127
000020 b1 b1 dd d7 f2 fa 01 09 14 03 f7 f3 01 39 3c 43
       -79 -79 -35 -41 -14 -6 1 9 20 3 -9 -13 1 57 60 67
000030 1e 57 14 a2 df f6 00 fe 08 d4 b4 13 7f 20 b3 3c
       30 87 20 -94 -33 -10 0 -2 8 -44 -76 19 127 32 -77 60
000040 e7 d9 1d 69 da f0 a5 49 1d 13 ee f7 00 31 13 1b
       -25 -39 29 105 -38 -16 -91 73 29 19 -18 -9 0 49 19 27
000050 af b1 24 3a e9 81 de 5c 37 11 f5 11 df 43 e7 dc
       -81 -79 36 58 -23 -127 -34 92 55 17 -11 17 -33 67 -25 -36
000060 d5 59 ef 4a 3c 1d ae 30 98 cc 6e 41 30 c4 62 7f
       -43 89 -17 74 60 29 -82 48 -104 -52 110 65 48 -60 98 127
000070 39 cd 90 da e1 fa 7f 7a 17 d4 1c 27 50 13 30 20
       57 -51 -112 -38 -31 -6 127 122 23 -44 28 39 80 19 48 32
000080 d6 c0 1e 1d ec 94 da 19 d1 81 b4 45 c9 b4 c4 30
       -42 -64 30 29 -20 -108 -38 25 -47 -127 -76 69 -55 -76 -60 48
000090 17 09 07 ed 30 42
       23 9 7 -19 48 66
